autoencoder_outputs/1layer300x300_/model_045000.pth (torch, 300733 bytes, 20 tensors)

feature_extractor.0.0.weight f4 [300, 3, 5, 5]
0	0x3b0b0833	0.0021214604
1	0x39f633c6	0.0004695935
2	0x3add13ff	0.0016866921
3	0x396e35ba	0.00022717463
4	0x3b127e9a	0.0022353292
5	0x39d264ea	0.00040129508
6	0xba5bda89	-0.0008386751
7	0x39891981	0.00026149678
8	0xba8be31c	-0.0010672542
9	0x39f4ccca	0.00046691886
10	0x3abfe47a	0.0014640235
11	0x392102da	0.00015355219
12	0x3ac1a4bf	0.001477383
13	0xb87859f7	-5.9211594e-05
14	0x3ace5a6a	0.0015743498
15	0x38dc9ca5	0.00010519595
16	0xba8fe7cc	-0.0010979115
17	0xb77452fe	-1.4562856e-05
18	0xba9ed337	-0.001211739
19	0x393afdee	0.00017832938
20	0x3b050334	0.0020296099
21	0x39f1cfe6	0.00046121998
22	0x3ad9175c	0.0016562748
23	0x39800b54	0.00024422503
24	0x3afeb68f	0.0019433069
25	0x3b257ed8	0.0025252607
26	0x3a44381e	0.0007485169
27	0x3afce491	0.0019294192
28	0x39f8b03c	0.0004743355
29	0x3b1f585c	0.002431414
30	0x3a3d411e	0.0007219481
31	0xba2f0daf	-0.0006677759
32	0x39e051ad	0.00042785463
33	0xba6367d7	-0.0008674836
34	0x3a4310c7	0.00074411597
35	0x3b015e82	0.001974017
36	0x3a06b975	0.00051393296
37	0x3aec3c1a	0.0018023283
38	0x397d04cc	0.00024129747
39	0x3b007aaf	0.0019604375
40	0x3a26b26d	0.0006358985
41	0xba33a975	-0.0006853559
42	0x39c7a989	0.0003808255
43	0xba5c1742	-0.00083957997
44	0x3a30be88	0.00067422586
45	0x3b25fcb8	0.0025327634
46	0x3a55c85e	0.0008155162
47	0x3b04cb1b	0.0020262662
48	0x3a20423c	0.00061133853
49	0x3b1c5994	0.0023857104
50	0x3b14db7f	0.0022713838
51	0x39eccc0d	0.00045165457
52	0x3acde6d0	0.0015709046
53	0x39b21adc	0.00033970817
54	0x3b1d2416	0.0023977808
55	0x3a2119e3	0.000614552
56	0xba559ec9	-0.0008148966
57	0x398ea2f1	0.0002720575
58	0xba62cb25	-0.0008651487
59	0x3a5f320e	0.00085142336
60	0x3ae2869a	0.0017282546
61	0x3995d6d0	0.00028579542
62	0x3ac304ee	0.0014878788
63	0x38d982fc	0.00010371764
64	0x3af8e7ac	0.0018989942
65	0x3a081eef	0.0005192598
66	0xba5c569d	-0.00084052404
67	0x3928f677	0.00016113544
68	0xba6ec01c	-0.0009107606
69	0x3a299d48	0.0006470275
70	0x3b0e9d67	0.00217613
71	0x39f4eb8c	0.00046714803
72	0x3aced75f	0.0015780738
73	0x39d3aaf2	0.0004037242
74	0x3b13a024	0.0022525871
75	0xbb6fce73	-0.003659156
76	0xbb39b3ff	-0.0028336046
77	0x38e506f1	0.00010920864
78	0x3b5ce732	0.003370714
79	0x3aa0c305	0.0012265152
80	0xbaeef297	-0.0018230256
81	0x3968a408	0.0002218635
82	0x3b226746	0.0024780794
83	0x3b8db75c	0.0043248367
84	0xb8cf3d1a	-9.88191e-05
85	0xb9b05fe5	-0.00033640783
86	0x3aed2637	0.0018093054
87	0x3b57b490	0.003291402
88	0x3b393a04	0.002826334
89	0xbb4648c2	-0.003025577
90	0x3a602af9	0.00085513253
91	0x3b019aff	0.0019776223
92	0x3a60a032	0.0008568793
93	0xbb0ddec9	-0.0021647683
94	0xbbef99e7	-0.0073120478
95	0xb979770b	-0.00023790837
96	0xba859e83	-0.0010194335
97	0xbb8521fa	-0.004062888
98	0xbbc55e83	-0.0060232296
99	0xbc1993d1	-0.009373621
100	0xbb0231d9	-0.0019866137
101	0xbaa968f9	-0.0012924961
102	0x3ac03761	0.0014664942
103	0x3ba22818	0.004948627
104	0x3b3ed245	0.002911703
105	0xb8c5ea21	-9.437302e-05
106	0x3add3c47	0.0016878926
107	0x3b6aca1d	0.0035826035
108	0x3bb270cc	0.0054455753
109	0x3aa2532f	0.001238441
110	0x3ab36ae3	0.0013688471
111	0x3b4ab67c	0.0030931523
112	0x3b883c01	0.0041575436
113	0x3b6cdbeb	0.0036141824
114	0xbb1231f0	-0.0022307597
115	0x3b16202d	0.0022907362
116	0x3b485b85	0.0030572128
117	0x3ad29ef1	0.0016069097
118	0xbabebb81	-0.001455173
119	0xbbe18782	-0.006882609
120	0xb8e47204	-0.00010893124
121	0xbab6ec1a	-0.0013955862
122	0xbb989a5a	-0.004657072
123	0xbbd60b7d	-0.006532131
124	0xbc231564	-0.00995383
125	0xbb5e12da	-0.0033885748
126	0xbb3e5e06	-0.0029047742
127	0xba2c798a	-0.000657939
128	0x3b2c94a3	0.0026333712
129	0x3a2094e3	0.00061257015
130	0xba54cabb	-0.00081173674
131	0x3a304d5c	0.00067253946
132	0x3b06459d	0.002048827
133	0x3b64a675	0.0034889255
134	0xba20daae	-0.00061361014
135	0x3a864658	0.0010244353
136	0x3b233a80	0.0024906695
137	0x3b472418	0.0030386504
138	0x3b0ad6b0	0.0021185093
139	0xbb74c157	-0.0037346685
140	0x3b0646cc	0.0020488976
141	0x3b1be7aa	0.0023789206
142	0x3a546a28	0.0008102977
143	0xbb11890f	-0.0022206937
144	0xbbf5bce1	-0.0074993228
145	0xba94fbc7	-0.0011366539
146	0xbb2522b2	-0.0025197682
147	0xbbb57a17	-0.005538236
148	0xbbe7a58d	-0.0070692957
149	0xbc29585f	-0.010336011
150	0x3af97703	0.0019032661
151	0x3a133f90	0.00056170765
152	0x3ac9aeac	0.0015387139
153	0x39f2811f	0.0004625404
154	0x3b01e9fe	0.0019823308
155	0x3a0c9fe3	0.0005364401
156	0xb9fe1599	-0.00048462747
157	0x39c8157a	0.00038162974
158	0xba1f0299	-0.0006065756
159	0x3a18a60b	0.0005823082
160	0x3aba0529	0.0014192212
161	0x39b802b0	0.00035097217
162	0x3abfec74	0.0014642612
163	0x39961b6d	0.00028630663
164	0x3acb463e	0.0015508605
165	0x39c549bd	0.00037629707
166	0xba21872e	-0.0006161806
167	0x399d9dc1	0.0003006291
168	0xba254185	-0.00063040137
169	0x39f6d88f	0.00047082125
170	0x3aeae1b2	0.0017920046
171	0x3a0bcabc	0.0005332639
172	0x3ac76d2b	0.001521503
173	0x39e9c34e	0.00044586736
174	0x3ae801aa	0.0017700691
175	0x3ae1c710	0.0017225463
176	0x39a9a61e	0.0003235796
177	0x3aac9bba	0.0013168969
178	0x39709618	0.00022944098
179	0x3ae04400	0.0017110109
180	0x39b4b55b	0.00034467396
181	0xba4742bc	-0.0007601192
182	0x390ac0c5	0.00013232518
183	0xba5e8ab0	-0.0008489294
184	0x39c783ff	0.00038054583
185	0x3ab177dd	0.001353975
186	0x39509926	0.00019893478
187	0x3aaacb83	0.0013030622
188	0x38ce34f8	9.832712e-05
189	0x3aba6d56	0.0014223258
190	0x39aaa401	0.0003254712
191	0xba3d4054	-0.00072193635
192	0x394879bf	0.0001911884
193	0xba49e5ed	-0.0007701803
194	0x39db9b63	0.00041886707
195	0x3ae162f0	0.0017195623
196	0x39ce598a	0.00039358094
197	0x3ab7c548	0.0014020586
198	0x39a89b92	0.00032159366
199	0x3aded663	0.0017001148
200	0x3b1cc059	0.002391836
201	0x3a76419f	0.00093939336
202	0x3af1bbec	0.0018442846
203	0x3a6bbe30	0.0008992879
204	0x3b1e33d1	0.0024139772
205	0x3a9354c5	0.0011240473
206	0xb837a90a	-4.378803e-05
207	0x3a4e1d53	0.0007862646
208	0xb8bbeb74	-8.9607114e-05
209	0x3a9d09e4	0.0011981097
210	0x3b050104	0.0020294795
211	0x3a5e2b31	0.0008475064
212	0x3aefa513	0.0018283449
213	0x3a42f3d4	0.0007436846
214	0x3b0a8f57	0.0021142566
215	0x3a8fb4d7	0.0010963929
216	0xb7f85005	-2.9601166e-05
217	0x3a4e8f9c	0.0007879676
218	0xb8b7df50	-8.767715e-05
219	0x3a941920	0.0011298992
220	0x3b1793ab	0.0023128788
221	0x3a75d888	0.0009378274
222	0x3af34012	0.0018558523
223	0x3a75a68e	0.0009370827
224	0x3b19d63c	0.002347364
225	0x3b40653f	0.0029357222
226	0x3a8aaf6d	0.0010580845
227	0x3b209b22	0.002450653
228	0x3a5579ac	0.00081434357
229	0x3b439bd3	0.0029847517
230	0x3a7c80f8	0.0009632255
231	0xb9e77768	-0.00044148718
232	0x3a61a5d4	0.0008607779
233	0xba292be4	-0.00064533786
234	0x3a741dff	0.0009312331
235	0x3b11cb49	0.0022246412
236	0x3a480128	0.0007629567
237	0x3b1b4f51	0.00236984
238	0x3a264fa4	0.0006344265
239	0x3b1891ee	0.002328034
240	0x3a33d020	0.0006859321
241	0xba32ee93	-0.00068257115
242	0x3a229b00	0.00062029064
243	0xba43e4b1	-0.00074727373
244	0x3a38c483	0.00070483255
245	0x3b2fb7f2	0.002681252
246	0x3a78ac7c	0.00094861514
247	0x3b180782	0.0023197834
248	0x3a426e34	0.0007416934
249	0x3b295e57	0.0025843584
250	0x3b2f8523	0.0026782237
251	0x3a41effd	0.0007398127
252	0x3b0a3030	0.002108585
253	0x39e54bba	0.00043734704
254	0x3b28fe56	0.0025786362
255	0x3a2f6eeb	0.0006692248

feature_extractor.0.0.bias f4 [300]
0	0xb1cdda5b	-5.9911094e-09
1	0xb18fac25	-4.1814183e-09
2	0xb141d307	-2.8205152e-09
3	0x31a0178e	4.6592907e-09
4	0xb2f9c31a	-2.9076137e-08
5	0xae62bd63	-5.155466e-11
6	0x329de4e3	1.8381291e-08
7	0xb16896ac	-3.384609e-09
8	0xb0be3e4c	-1.3842025e-09
9	0xb1ecc502	-6.890901e-09
10	0x3215c1dd	8.717021e-09
11	0xb1a71d2e	-4.863657e-09
12	0xb2807c33	-1.495764e-08
13	0x30b3f985	1.3094882e-09
14	0x3152bab4	3.066515e-09
15	0x31ce4f02	6.0043712e-09
16	0x31aa7b68	4.961681e-09
17	0xb2b53e7f	-2.1099593e-08
18	0x3237d939	1.0701393e-08
19	0x3189ec22	4.01407e-09
20	0xb28dcde8	-1.6508196e-08
21	0x32a49523	1.9159932e-08
22	0xb26ec8b8	-1.38990615e-08
23	0x31e6bf96	6.715662e-09
24	0xb212a6ea	-8.53627e-09
25	0x32a8ca45	1.9649756e-08
26	0x324ad583	1.18064944e-08
27	0x2ff68d43	4.4847512e-10
28	0x31c206b1	5.646904e-09
29	0x2f3b3ddc	1.7029528e-10
30	0x32b752df	2.134169e-08
31	0xb22ee716	-1.0180676e-08
32	0x31789d89	3.6178298e-09
33	0xb21ebc11	-9.239572e-09
34	0x31dc2562	6.4070926e-09
35	0xb2a128dc	-1.8761448e-08
36	0x326329a9	1.32226115e-08
37	0x31b6c01e	5.3187383e-09
38	0x31873bf6	3.935834e-09
39	0x31fcf219	7.3616886e-09
40	0xb2b20c91	-2.0727642e-08
41	0x32080211	7.916712e-09
42	0xb1ec7a41	-6.8824026e-09
43	0x31dfbf48	6.5119004e-09
44	0xb21c2b6e	-9.09027e-09
45	0xb1eba923	-6.8586288e-09
46	0xb2e0dca1	-2.6177362e-08
47	0x31568fda	3.1222869e-09
48	0xb2db2499	-2.5511598e-08
49	0xb15bdb42	-3.1993328e-09
50	0xb27b37b8	-1.4622792e-08
51	0x320b2f3a	8.101603e-09
52	0x31a8b59e	4.910091e-09
53	0xb1675045	-3.3660552e-09
54	0x2f026d4f	1.1862265e-10
55	0x32621508	1.3159713e-08
56	0xb2bf6633	-2.2281801e-08
57	0xb202f267	-7.622112e-09
58	0x32104260	8.396995e-09
59	0xb1bf33fc	-5.5647416e-09
60	0x3095aff0	1.0891181e-09
61	0x3272f0dd	1.414102e-08
62	0x31d5bbfa	6.2204863e-09
63	0xb2214cd8	-9.388906e-09
64	0xb1cc75c0	-5.950568e-09
65	0x30db2c9e	1.5947028e-09
66	0xb16a1bfe	-3.4067393e-09
67	0xb0927d7d	-1.0658564e-09
68	0x32689ed3	1.354029e-08
69	0x2f5d2044	2.0111296e-10
70	0x322dbd6b	1.0112994e-08
71	0x318537ec	3.877167e-09
72	0xb23b8092	-1.0914066e-08
73	0xb16b042f	-3.4199379e-09
74	0xb2213946	-9.384456e-09
75	0xb12a378f	-2.4769837e-09
76	0x3150cda8	3.0384886e-09
77	0xb26f473d	-1.3927829e-08
78	0xb14bf45f	-2.9679297e-09
79	0xb1d8a4ee	-6.3051777e-09
80	0xafee198f	-4.3310108e-10
81	0xb2a4ce5d	-1.9185956e-08
82	0x30c5da69	1.4395712e-09
83	0xb16f118f	-3.4789058e-09
84	0xb1eb79fb	-6.8532677e-09
85	0xb1cba9e3	-5.9273915e-09
86	0x327f9155	1.4875998e-08
87	0x322984a8	9.867257e-09
88	0x31f957d7	7.25684e-09
89	0xb263d0d3	-1.326062e-08
90	0x32177271	8.815378e-09
91	0xb18c0d05	-4.0760164e-09
92	0xb1f83506	-7.223778e-09
93	0xaf6841c5	-2.1123643e-10
94	0xb1f01f13	-6.988452e-09
95	0xb206e97e	-7.8529165e-09
96	0xb1ddd18e	-6.45577e-09
97	0xb28f0ed9	-1.6654143e-08
98	0xb12fae4e	-2.5564932e-09
99	0x30879c74	9.867009e-10
100	0x310d94ca	2.0602777e-09
101	0x32413361	1.1245761e-08
102	0x325bd706	1.2796368e-08
103	0xb1b2c903	-5.203334e-09
104	0x3183c97f	3.8355092e-09
105	0x324742a9	1.1598481e-08
106	0xb1a674e6	-4.8445257e-09
107	0xb29b792a	-1.8099474e-08
108	0x31bbdb1e	5.467327e-09
109	0x32078fe1	7.8907485e-09
110	0x31808aac	3.7410555e-09
111	0x3255658d	1.2421322e-08
112	0xb1906c1a	-4.2032413e-09
113	0x32d21b2f	2.445958e-08
114	0x321c6ec2	9.1055785e-09
115	0xb2a61cf9	-1.9338119e-08
116	0xb12b61a9	-2.4939288e-09
117	0xb0d10a6a	-1.5209711e-09
118	0x3204a787	7.7215025e-09
119	0x327e59f0	1.4805195e-08
120	0x31f996bd	7.2639907e-09
121	0xb04a828e	-7.36727e-10
122	0xb2a96dd0	-1.9724126e-08
123	0x31fb6381	7.3163737e-09
124	0x2f7d6bce	2.3048516e-10
125	0x3104d1b5	1.9327733e-09
126	0x3241676f	1.1257597e-08
127	0x32c93b8c	2.3426558e-08
128	0x31474c77	2.9001777e-09
129	0x32614aa0	1.31136915e-08
130	0xaf1cb824	-1.4253537e-10
131	0x312e5a14	2.5371536e-09
132	0xb1f6bf75	-7.1813084e-09
133	0x31fbd0a1	7.32878e-09
134	0x32839af8	1.5320879e-08
135	0x32697816	1.3589689e-08
136	0x314afdfe	2.9539247e-09
137	0x31f1d78d	7.0385284e-09
138	0x30d71a8f	1.5650857e-09
139	0xb18e5655	-4.1425587e-09
140	0x31eeceb8	6.950213e-09
141	0xb210675e	-8.405406e-09
142	0x32596d9a	1.2655983e-08
143	0xb1509ff5	-3.0358909e-09
144	0xb20e8e0c	-8.297786e-09
145	0x31f55f3d	7.141266e-09
146	0xb249d065	-1.1747123e-08
147	0x32891583	1.5958681e-08
148	0xb1ee8515	-6.9418413e-09
149	0xb2d12353	-2.4346866e-08
150	0xb17494cd	-3.5591257e-09
151	0x329f3b0a	1.8536884e-08
152	0xb08d7d4a	-1.029471e-09
153	0xb2a9859e	-1.9734951e-08
154	0x31d09d2b	6.0714647e-09
155	0xb1e79207	-6.7395862e-09
156	0xb1eb92b8	-6.85608e-09
157	0xb1a3fcb9	-4.7726556e-09
158	0xb1d89421	-6.3032677e-09
159	0x30eec3ba	1.7372408e-09
160	0x314059a7	2.7990639e-09
161	0xb1d976f3	-6.329054e-09
162	0x3287e0dd	1.5818324e-08
163	0x304537b7	7.174736e-10
164	0xb2a3397d	-1.900184e-08
165	0xb16299ac	-3.297468e-09
166	0xb27ea4af	-1.4822191e-08
167	0x323548f5	1.0552175e-08
168	0xb1e3309a	-6.612095e-09
169	0x32385c3b	1.073118e-08
170	0x31bd6d65	5.5130607e-09
171	0xb1e9f278	-6.808758e-09
172	0x320854e9	7.935548e-09
173	0xb2c57489	-2.2986812e-08
174	0xb250f3d8	-1.2162637e-08
175	0xb140716b	-2.8004148e-09
176	0x31a833ed	4.895347e-09
177	0xb2a2dd32	-1.895987e-08
178	0xb2b13abd	-2.0632223e-08
179	0xb190c51c	-4.2133603e-09
180	0x3244deb4	1.1459338e-08
181	0xb21d075b	-9.140275e-09
182	0xaff2cefa	-4.416661e-10
183	0x32016c67	7.533436e-09
184	0xb1779f2b	-3.6033707e-09
185	0x3189cbfd	4.0104156e-09
186	0xb1fe8ad5	-7.4081563e-09
187	0xb048ce85	-7.305306e-10
188	0xb0e3873c	-1.655486e-09
189	0xb2b8bf65	-2.1507455e-08
190	0x32676c68	1.3470618e-08
191	0x32977d70	1.7635756e-08
192	0x3291fe74	1.6995934e-08
193	0xb0bcf1e2	-1.3747548e-09
194	0x317b8aa7	3.6604122e-09
195	0xb213c3aa	-8.601015e-09
196	0x31248070	2.393815e-09
197	0x31ce0de2	5.9969674e-09
198	0x31a3d816	4.7684905e-09
199	0x3274f87b	1.4259167e-08
200	0xb1854272	-3.8783634e-09
201	0x321a2e11	8.974454e-09
202	0xb2255ebb	-9.625803e-09
203	0xb26d5812	-1.38152405e-08
204	0xb208a332	-7.953348e-09
205	0x32f6960e	2.8706406e-08
206	0x324cd918	1.1923724e-08
207	0xb18e04a2	-4.1332706e-09
208	0xb16b3f97	-3.4233147e-09
209	0x32ac2143	2.0038561e-08
210	0xb1646a95	-3.3238952e-09
211	0x2f424698	1.7669277e-10
212	0x31407cb2	2.8010558e-09
213	0xb10d9369	-2.0601993e-09
214	0x310c4d96	2.0416784e-09
215	0x32cf9482	2.4165505e-08
216	0xb16bd997	-3.4320686e-09
217	0xb21306bb	-8.5580565e-09
218	0xb2a5e198	-1.9311116e-08
219	0x328cc8c4	1.6389443e-08
220	0x31c70351	5.7920393e-09
221	0x3215bda5	8.716062e-09
222	0x31e7100c	6.724809e-09
223	0x314d63fd	2.9888263e-09
224	0x32472a8f	1.1593001e-08
225	0xb26bb62e	-1.3720223e-08
226	0x31f6031b	7.1598953e-09
227	0xb2104efe	-8.399864e-09
228	0x31decbd7	6.4842243e-09
229	0x3318fda6	3.562095e-08
230	0x3094ce9e	1.0827141e-09
231	0x31686934	3.3820244e-09
232	0x31c3f9c2	5.703641e-09
233	0x3186bbe9	3.921276e-09
234	0x31744c5f	3.5550085e-09
235	0x3296d65b	1.7559776e-08
236	0x3189c19f	4.009237e-09
237	0xb23c331a	-1.0954659e-08
238	0xb254133b	-1.2344397e-08
239	0xb166c966	-3.3583887e-09
240	0x3186114c	3.9018797e-09
241	0x3280c9a5	1.4992859e-08
242	0x3299fe82	1.7927281e-08
243	0x323b4a83	1.0901775e-08
244	0x32802156	1.491632e-08
245	0x316bceec	3.4314622e-09
246	0xb210412f	-8.396724e-09
247	0xb20d871a	-8.237999e-09
248	0xb23eec4a	-1.11131815e-08
249	0x31dcdbe8	6.427843e-09
250	0xb2532b9e	-1.2291734e-08
251	0x3112c8b3	2.135988e-09
252	0xb100177a	-1.8639796e-09
253	0x30c61cde	1.4414601e-09
254	0x31ad081e	5.0358855e-09
255	0x319c1b30	4.5432884e-09

feature_extractor.0.1.weight f4 [300]
0	0x3c1f877b	0.009736891
1	0x3c5d4a14	0.013506431
2	0x3c260325	0.010132586
3	0x3c8e192c	0.017345987
4	0x3c64f423	0.013974222
5	0x3c2bb02e	0.010479016
6	0x3c3fd276	0.011707893
7	0x3c9ecc96	0.019384664
8	0x3c8c35d0	0.017115504
9	0x3c61fb08	0.013792761
10	0x3c30bb84	0.010786895
11	0x3c58ba0a	0.013227949
12	0x3c98fed9	0.018676208
13	0x3c8091d5	0.015694538
14	0x3cb03e31	0.02151403
15	0x3c1ff53f	0.009763061
16	0x3c412193	0.01178779
17	0x3c97efc3	0.018546944
18	0x3c8ab18f	0.01693037
19	0x3c0f370c	0.008741152
20	0x3c9b08b8	0.018925056
21	0x3c90e116	0.017685454
22	0x3ccc3ec9	0.024932282
23	0x3c483a38	0.012220912
24	0x3c2ba58f	0.010476484
25	0x3c8b3fc0	0.016998172
26	0x3c76fa8a	0.015074382
27	0x3bc99964	0.006152319
28	0x3cc176a3	0.02361614
29	0x3c008166	0.007843351
30	0x3c972ad1	0.018453034
31	0x3c34ca49	0.011034557
32	0x3c14539b	0.009053136
33	0x3c5231bd	0.012829241
34	0x3c598053	0.013275224
35	0x3ca45169	0.02005835
36	0x3c91e6e2	0.017810289
37	0x3c592d02	0.01325536
38	0x3c33c786	0.010972863
39	0x3c0b91f9	0.008518689
40	0x3c9c63d1	0.019090565
41	0x3bdfb3af	0.00682684
42	0x3c310147	0.010803527
43	0x3c6e63a0	0.01455012
44	0x3c6f6630	0.014611766
45	0x3c5454a3	0.012959632
46	0x3ca0d80d	0.019634271
47	0x3c9d7028	0.01921852
48	0x3c8da3cd	0.01729002
49	0x3c1361ae	0.008995457
50	0x3c61c31e	0.01377943
51	0x3cb26104	0.021774776
52	0x3bd4f47a	0.0064988704
53	0x3c0c80cc	0.008575629
54	0x3c426ab1	0.0118662575
55	0x3c568a0e	0.013094438
56	0x3c317ad0	0.010832503
57	0x3c467fb1	0.012115405
58	0x3c2c6910	0.010523096
59	0x3c3bbfaa	0.0114592705
60	0x3c47566f	0.0121666035
61	0x3c63bba3	0.013899717
62	0x3c171ce0	0.009223193
63	0x3c0dd9d6	0.008657893
64	0x3c0bd8be	0.008535562
65	0x3c2b6b38	0.010462575
66	0x3c03e96a	0.008051256
67	0x3ca1bc0a	0.019742984
68	0x3c448669	0.0119949365
69	0x3c83620c	0.016037963
70	0x3c84045c	0.01611536
71	0x3c432e9f	0.011912971
72	0x3c851b4c	0.016248368
73	0x3c66d433	0.014088678
74	0x3c9b9db4	0.018996097
75	0x3c28df74	0.010307182
76	0x3bf99431	0.0076165427
77	0x3cb15fbf	0.0216521
78	0x3c6eefda	0.014583552
79	0x3c59711a	0.013271594
80	0x3c21fdb2	0.009887146
81	0x3c998dc0	0.01874435
82	0x3c06de5a	0.008231724
83	0x3c339698	0.010961197
84	0x3c442cbb	0.011973555
85	0x3c857f74	0.016296126
86	0x3c5f2ff7	0.013622276
87	0x3c241d74	0.010016788
88	0x3c5857bc	0.013204511
89	0x3c916b1e	0.017751273
90	0x3c24be6b	0.010055165
91	0x3c2a6fc5	0.0104026245
92	0x3cab47e2	0.0209083
93	0x3c23b8ac	0.00999276
94	0x3bf38a4d	0.007432258
95	0x3c7a56de	0.0152795
96	0x3c3675a1	0.011136443
97	0x3c85b655	0.016322294
98	0x3c630889	0.013857015
99	0x3c984aab	0.018590292
100	0x3c81c1f9	0.015839564
101	0x3c84624c	0.016160153
102	0x3c9dcaf6	0.019261818
103	0xbcb81447	-0.022470606
104	0x3c3c197b	0.011480684
105	0x3ca6a778	0.020343527
106	0x3c8b365a	0.01699369
107	0x3c842ca4	0.016134568
108	0x3c05f01f	0.008174925
109	0x3c88ccc0	0.016699195
110	0x3c4b0fa7	0.0123938685
111	0x3c4becc7	0.012446589
112	0x3c465bf4	0.012106884
113	0x3cb62a81	0.022237064
114	0x3c4d36a6	0.012525236
115	0x3c2045d1	0.0097822705
116	0x3c9e0483	0.01928926
117	0x3c4501e0	0.012024373
118	0x3c748584	0.014924411
119	0x3cbb6bef	0.022878615
120	0x3c351866	0.01105318
121	0x3c2c4a7e	0.010515807
122	0x3c60a465	0.01371107
123	0x3c2629f1	0.010141836
124	0x3c205294	0.009785313
125	0x3c909b82	0.017652277
126	0x3c815d65	0.015791604
127	0x3c9426fc	0.018084995
128	0x3c14ba45	0.009077613
129	0x3c847baa	0.016172249
130	0x3c1af8eb	0.009458761
131	0x3c179bf2	0.009253489
132	0x3c035830	0.008016631
133	0x3be7294e	0.0070544844
134	0x3c483b84	0.012221221
135	0x3c866454	0.016405262
136	0x3c6ce411	0.014458672
137	0x3c355613	0.011067885
138	0x3c08461e	0.0083174985
139	0x3c4943d3	0.012284237
140	0x3c812737	0.01576577
141	0x3c59f29e	0.013302473
142	0x3c4e7bd5	0.012602766
143	0x3c571554	0.013127644
144	0x3c1a65b8	0.009423666
145	0x3c193231	0.0093503455
146	0x3c79eb04	0.015253786
147	0x3c9bea92	0.01903275
148	0x3c630a43	0.013857427
149	0xbc88c2e8	-0.016694501
150	0x3c9d358d	0.019190574
151	0x3c23f3a7	0.010006822
152	0x3c39ec05	0.011347775
153	0x3c6f1bff	0.014594077
154	0x3ca73c10	0.020414382
155	0x3c8820b6	0.01661716
156	0x3c9567f1	0.01823804
157	0x3c3902af	0.011292144
158	0x3c3d45e8	0.0115523115
159	0x3c57305d	0.013134089
160	0x3ca0002e	0.019531336
161	0x3c7223d4	0.01477905
162	0x3c525aa1	0.01283899
163	0x3be20d7b	0.0068985797
164	0x3c094da7	0.00838033
165	0x3c3872f6	0.011257878
166	0x3c684c85	0.0141784
167	0x3c3c60f3	0.011497724
168	0x3c568f7b	0.013095732
169	0x3c8f1264	0.017464824
170	0x3ca0d2a8	0.019631699
171	0x3c81974f	0.01581922
172	0x3c89d5a8	0.016825512
173	0xbc890d24	-0.016729899
174	0x3c5de91b	0.013544346
175	0x3c61e12f	0.013786598
176	0x3c716f58	0.014736019
177	0x3c7f25d1	0.015572981
178	0x3ca4d9fe	0.020123478
179	0x3c5b913c	0.013401326
180	0x3c47570b	0.012166749
181	0x3c47c755	0.012193521
182	0x3c3076d2	0.0107705165
183	0x3c3934e0	0.01130411
184	0x3c57085e	0.0131245535
185	0x3c222e95	0.009898801
186	0x3c3afc6c	0.011412721
187	0x3b7f3824	0.0038943375
188	0x3c22071b	0.009889389
189	0x3c7e4bc1	0.015520991
190	0x3c8726a7	0.016497923
191	0x3c967523	0.018366402
192	0x3c56f120	0.013119012
193	0x3c33a650	0.010964945
194	0x3c28fd65	0.01031432
195	0x3c831639	0.016001808
196	0x3c38c4e0	0.011277407
197	0x3c9cebc7	0.019155396
198	0x3c0924dc	0.008370604
199	0x3c992779	0.01869558
200	0x3c4e17d1	0.01257892
201	0x3cca33ff	0.024682997
202	0x3caa1be9	0.020765262
203	0x3c83bcf4	0.01608131
204	0x3c696065	0.014244174
205	0x3c8bb868	0.017055705
206	0x3c8108a6	0.015751194
207	0x3c004fe0	0.007831544
208	0x3c3c0607	0.011476046
209	0x3c7638b5	0.015028168
210	0x3cbf486f	0.023349969
211	0x3c3ae9c3	0.011408272
212	0x3c214cfd	0.009845016
213	0x3c9cc304	0.01913596
214	0x3c4d0ef1	0.012515769
215	0x3c574d3f	0.0131409755
216	0x3c48ffee	0.01226805
217	0x3c54a45a	0.012978638
218	0x3c8ef892	0.017452512
219	0x3c64a011	0.013954178
220	0x3c789287	0.015171654
221	0x3ca64c9b	0.0203002
222	0x3bf5a762	0.00749676
223	0x3c8f232d	0.017472828
224	0x3c1169ba	0.008875305
225	0x3ca06d1e	0.019583281
226	0x3bff8444	0.0077977497
227	0x3c2aff6f	0.010436877
228	0x3c0a54a8	0.008443035
229	0x3cee8501	0.029116156
230	0x3cae96da	0.021312166
231	0x3cb88f6a	0.022529323
232	0x3c3e4496	0.011613032
233	0x3c47ca78	0.012194268
234	0x3c3aaf88	0.011394389
235	0x3cbe306f	0.023216454
236	0x3c1a93b0	0.0094346255
237	0x3ca724b0	0.020403236
238	0x3c3bcd3f	0.011462509
239	0x3c2d3fd7	0.010574303
240	0x3c8598c1	0.01630819
241	0x3c6fdd5e	0.01464018
242	0x3ca8e5a7	0.02061732
243	0x3c89420f	0.016755132
244	0x3c5a84d2	0.013337331
245	0x3c946d4c	0.018118523
246	0x3c120756	0.008912882
247	0x3c174798	0.009233378
248	0x3c33dd24	0.010978017
249	0x3c332f70	0.010936603
250	0x3c1d5814	0.009603519
251	0x3c8a3246	0.016869675
252	0x3c436850	0.0119267255
253	0x3c8815cf	0.016611962
254	0x3c9597e3	0.018260902
255	0x3c02941c	0.007969882

feature_extractor.0.1.bias f4 [300]
0	0xb7fbedcf	-3.003227e-05
1	0xbb2447be	-0.0025067176
2	0x3bade1e7	0.0053064707
3	0xbace3aa5	-0.001573403
4	0xba873c61	-0.0010317677
5	0xbb753003	-0.003741265
6	0xba1a28d9	-0.00058807206
7	0x390df1bc	0.00013536861
8	0xb98beb67	-0.00026687534
9	0x3a9a9b74	0.0011795596
10	0xba1b26f6	-0.00059185864
11	0xbb8be31f	-0.0042690183
12	0xba0cbb43	-0.00053684803
13	0xbb529fda	-0.0032138736
14	0xbc209625	-0.009801422
15	0x3a23608a	0.0006232342
16	0x3b68b03f	0.0035505441
17	0xbb766f52	-0.0037602973
18	0xbbea4521	-0.007149354
19	0xbb25a610	-0.0025275983
20	0xb9b1e194	-0.0003392814
21	0xbbff7e03	-0.007797004
22	0x3b1ab53d	0.0023606562
23	0x3b2f90a9	0.0026789105
24	0x39719486	0.0002303888
25	0xbaedfbfd	-0.0018156763
26	0x3ba5ce15	0.0050599673
27	0x39d22732	0.00040083524
28	0xbac090c6	-0.0014691583
29	0xb8e934e1	-0.00011120155
30	0x3abeffbe	0.0014572067
31	0xbb1cb50e	-0.0023911628
32	0xbb047f68	-0.0020217542
33	0xb5d5563f	-1.5894838e-06
34	0xb8cdc20f	-9.811308e-05
35	0xbaa292ba	-0.0012403347
36	0x39eb42dd	0.0004487251
37	0x3a126c1b	0.0005585567
38	0x3b2c90f5	0.0026331518
39	0xbabfd111	-0.001463445
40	0x3ac94ea0	0.0015358515
41	0xbb55108e	-0.0032511088
42	0xbb50aa35	-0.0031839733
43	0x3a04f88e	0.0005072438
44	0xbb393b4f	-0.002826411
45	0x3ba48a6b	0.0050213835
46	0x3ba2bd63	0.0049664243
47	0xbbd0a359	-0.006367129
48	0xbbf17d8d	-0.007369703
49	0x3b17e31c	0.002317614
50	0x3ae54a14	0.001749339
51	0xbbb543b4	-0.0055317525
52	0xb9c5bfe1	-0.0003771773
53	0xbb248a2f	-0.0025106778
54	0xbba03986	-0.00488967
55	0x3bb3ecc0	0.0054908693
56	0xbb87cccb	-0.0041442863
57	0xba1e34d5	-0.0006035094
58	0xba70b6c0	-0.00091825053
59	0x3b2626dd	0.0025352754
60	0x398fcd24	0.00027427927
61	0xbc0b0ab1	-0.008486436
62	0xbb961e4e	-0.0045812493
63	0xbb5c5a99	-0.0033623336
64	0xbb090c0b	-0.002091172
65	0xbab94827	-0.0014135883
66	0x3c018086	0.0079041775
67	0xbbee6d6a	-0.0072762268
68	0xbbc1317c	-0.0058957916
69	0xbb09df3c	-0.00210376
70	0xbb0816df	-0.0020765585
71	0x3baf466c	0.005348971
72	0x3b9cf768	0.0047902353
73	0xbb8b3992	-0.0042488063
74	0xbadb6551	-0.0016738569
75	0x3b8d37df	0.004309639
76	0xbae45eeb	-0.0017423307
77	0xb9bfe733	-0.00036602616
78	0xbc3d3d8b	-0.0115503175
79	0x39ccf9c5	0.00039096005
80	0xb9c2b0e2	-0.0003713435
81	0x387ea500	6.0711987e-05
82	0x3b3619e4	0.0027786428
83	0x3b2c28e8	0.00262695
84	0xba6dfbfc	-0.0009078381
85	0xbb4be840	-0.0031113774
86	0xbb3b06f7	-0.0028538087
87	0xba1e068f	-0.0006028199
88	0x39b65334	0.00034775736
89	0xba1c2819	-0.0005956903
90	0x39c65e18	0.00037835608
91	0xb8dfc712	-0.00010670548
92	0x39b687ca	0.00034814916
93	0x3a1cbb05	0.0005978796
94	0xba316e44	-0.0006768445
95	0x3b72df33	0.0037059307
96	0x3b10058b	0.002197596
97	0xba033d5e	-0.0005006398
98	0xbb1bc20a	-0.002376678
99	0x3b126d15	0.002234285
100	0x3b033f8c	0.002002689
101	0x3a8d670d	0.0010788158
102	0x3b00a7d0	0.0019631274
103	0xbbda95f8	-0.0066707097
104	0xba842752	-0.0010082519
105	0xbab67b1c	-0.0013922187
106	0x3949afb8	0.00019234314
107	0xbb861043	-0.004091294
108	0xbb999ee9	-0.004688133
109	0x3b731b7f	0.0037095246
110	0xbb1d4c9a	-0.0024001957
111	0xbbf24294	-0.0073931906
112	0xba2803d5	-0.00064092624
113	0xbb446b78	-0.0029971283
114	0xbaf467e6	-0.0018646687
115	0xbb098c68	-0.002098823
116	0xbbe785f3	-0.0070655285
117	0xbb038e8d	-0.002007398
118	0x3b1d6b52	0.0024020267
119	0xbb413a02	-0.0029484038
120	0x3a9320bb	0.0011224964
121	0xbb092460	-0.0020926222
122	0x3a63b02c	0.00086856144
123	0x3ad79d2a	0.0016450037
124	0xbb5948b1	-0.00331549
125	0xbbd37cf7	-0.006454106
126	0xbabfe410	-0.0014640111
127	0x39f3675a	0.00046425575
128	0xbb1d396e	-0.002399053
129	0x3bb91ea9	0.005649407
130	0xbb7b0098	-0.0038299914
131	0xba69f0a8	-0.0008924105
132	0xba28ec9b	-0.00064439484
133	0xbb2bae31	-0.0026196355
134	0x3b0a2b49	0.002108293
135	0xbb2db741	-0.0026506933
136	0xbaf01dc9	-0.0018319424
137	0xbba05ef7	-0.004894133
138	0xbb6098cd	-0.0034270764
139	0xba26844c	-0.0006352111
140	0xb9eee2e3	-0.0004556394
141	0xbbda9e19	-0.0066716787
142	0xbaf6f460	-0.001884114
143	0xbaf7a30e	-0.0018893199
144	0xbabfb3bd	-0.001462571
145	0x3ab83e9c	0.0014056745
146	0x3afd4d5a	0.0019325421
147	0x39d9b22d	0.00041522217
148	0xb75e0226	-1.3232731e-05
149	0xbbaa7d14	-0.0052028988
150	0x3a84d9d1	0.0010135715
151	0x3bfdbcf1	0.007743471
152	0x3a9fb72e	0.0012185329
153	0xbb6df6e7	-0.0036310495
154	0xbc4499da	-0.011999572
155	0xbaa1e10b	-0.0012350393
156	0xba6e5855	-0.0009092142
157	0x3af34215	0.0018559123
158	0xbaa461af	-0.0012541319
159	0x3a1e849c	0.0006046982
160	0x3b0eeeb0	0.002180975
161	0xbba0fb01	-0.0049127345
162	0xbbba5ae9	-0.005687107
163	0xbb07f76e	-0.0020746845
164	0xbae43e11	-0.0017413517
165	0x3a812722	0.0009853581
166	0xbc046063	-0.008079621
167	0xbbbde134	-0.0057946686
168	0x3a86ac71	0.001027478
169	0x3a6f9824	0.0009139797
170	0x3b5442ac	0.0032388372
171	0x3bbbe578	0.005734142
172	0xbb01ce9a	-0.0019806982
173	0xbb9aae16	-0.0047204597
174	0xbb6a5c07	-0.003576042
175	0xbbc437ee	-0.0059881127
176	0xbba92464	-0.005161809
177	0x3bf960b4	0.007610405
178	0x3b8d7a9b	0.004317594
179	0xbb7fbb06	-0.0039021387
180	0x3a2c72f9	0.00065784116
181	0xbad0c003	-0.0015926365
182	0xbb38d24a	-0.0028201514
183	0xbb96d345	-0.004602822
184	0x3bbd529f	0.0057776715
185	0xbb309d9b	-0.002694941
186	0xbbbe2e1e	-0.0058038374
187	0xbb22b1e2	-0.0024825265
188	0xbc043c29	-0.008070984
189	0x3be870dc	0.007093532
190	0xb9b2e82b	-0.00034123784
191	0xb9d13ee4	-0.00039910444
192	0xbbc7e98a	-0.006100838
193	0xbc158d48	-0.009127922
194	0x3b68300e	0.0035429033
195	0x3b160371	0.0022890235
196	0x39b60f5e	0.00034725195
197	0xbb1a1039	-0.0023508205
198	0x3abbf5ac	0.0014340184
199	0x3b4a6b4a	0.0030886703
200	0xbb5fb48c	-0.0034134714
201	0xbb43d1e8	-0.0029879753
202	0x3aba63e0	0.0014220439
203	0x3932333d	0.0001699449
204	0x3b06c6dc	0.0020565307
205	0xbc1d2165	-0.009590481
206	0x3b6508e1	0.003494792
207	0xba7582cd	-0.0009365499
208	0xbb3182cf	-0.0027086025
209	0xba6050ab	-0.00085569423
210	0x3ac23b2e	0.0014818662
211	0x39e9bce8	0.0004458197
212	0xb99480a1	-0.00028324596
213	0xbbc2a839	-0.005940464
214	0x3a37fc93	0.00070185325
215	0x3b660c49	0.0035102537
216	0xbac1af44	-0.0014776965
217	0xbaccf708	-0.0015637586
218	0xbbb6b7b0	-0.0055760965
219	0xba2accae	-0.0006515485
220	0x3b9f112c	0.004854342
221	0xba6007ee	-0.00085461035
222	0xbb142321	-0.0022603946
223	0x3bda419f	0.0066606547
224	0xbb2964ea	-0.0025847503
225	0xbb588090	-0.0033035614
226	0xbb565211	-0.0032702724
227	0x3b02d60f	0.0019964015
228	0xbc13f0f3	-0.009029615
229	0xbbb8a9b5	-0.005635465
230	0x396dbc07	0.00022672127
231	0x3b394fb9	0.0028276278
232	0xbb8ff0e3	-0.0043927296
233	0xbb2fb580	-0.0026811063
234	0xbb9c1fce	-0.0047645336
235	0xbc1d53d5	-0.009602507
236	0xbb34cb73	-0.0027587085
237	0xbc05b444	-0.008160654
238	0xbaa039f7	-0.0012224306
239	0xbae45b4a	-0.0017422226
240	0xba9ab713	-0.0011803828
241	0x3b9b7843	0.004744561
242	0x39e01eae	0.00042747468
243	0xbafea3fc	-0.0019427533
244	0xbbe5343f	-0.0069947536
245	0x3b49c7c3	0.0030789233
246	0xbb674680	-0.0035289824
247	0x3b90b695	0.0044162967
248	0xb8760104	-5.8651916e-05
249	0x3b19d7d1	0.0023474584
250	0xbb9973e5	-0.004683005
251	0xbc278164	-0.01022372
252	0x3aa2fa54	0.0012434223
253	0xba991845	-0.0011680207
254	0xbb92f74d	-0.004485047
255	0xbbaba43e	-0.005238085

feature_extractor.0.1.running_mean f4 [300]
0	0x3cc5a8f9	0.024128424
1	0xbc8aaed5	-0.01692907
2	0x3cd38b40	0.025823236
3	0x3d1b9323	0.037982117
4	0xbd71356a	-0.05888883
5	0xbc2214a6	-0.009892618
6	0xbd7e816c	-0.062135145
7	0xbd9aca00	-0.0755806
8	0xbd825926	-0.0636466
9	0x3cf9a786	0.03047539
10	0x3cd482f0	0.025941342
11	0xbd81d50b	-0.06339463
12	0xbd897d69	-0.06713373
13	0xbd892247	-0.06695991
14	0xbda9cfa3	-0.08291557
15	0x3ce7963e	0.028269883
16	0x3cff8130	0.031189531
17	0x3d4d34ee	0.050099306
18	0xbd938836	-0.072037145
19	0x3cd81061	0.026374998
20	0xbd9be811	-0.076126225
21	0xbd855fed	-0.06512437
22	0xbd8e7b76	-0.06957142
23	0x3cfc6273	0.030808663
24	0x3ce67872	0.028133605
25	0xbd710402	-0.058841713
26	0xbd88a46a	-0.066719845
27	0x3c67cf48	0.014148541
28	0xbd9616e8	-0.07328588
29	0x3ca0288d	0.019550586
30	0x3ceb6899	0.0287364
31	0x3ce60e4c	0.02808299
32	0x3a238b3f	0.0006238706
33	0xbd470e93	-0.048597883
34	0xbd68eafc	-0.056864724
35	0x3cc33045	0.023826728
36	0xbd892e62	-0.066983
37	0x3c73856a	0.014863351
38	0x3ce5ae9e	0.028037366
39	0x3caa1f3a	0.020766843
40	0xbda094a5	-0.07840852
41	0x3cb0f10e	0.021599319
42	0x3cceef90	0.025260717
43	0x3d20e332	0.03927917
44	0xbd5d1421	-0.053974275
45	0xbd880676	-0.06641857
46	0x3cd8c4b7	0.026460988
47	0xbd8dc426	-0.06922178
48	0xbd6e1b2d	-0.058131386
49	0x3c9fa14b	0.01948609
50	0xbd6d32fe	-0.057909958
51	0xbd826d13	-0.063684605
52	0x3c8814e1	0.016611518
53	0x3cb58f80	0.022163153
54	0x3cf56d72	0.029959414
55	0xbd591ca9	-0.053005848
56	0x3d179c0e	0.03701406
57	0x3cd6edc2	0.026236419
58	0x3d016f9c	0.03160058
59	0xbd50a3c6	-0.050937437
60	0xbd58eaaa	-0.052958168
61	0x3d301f2f	0.04299849
62	0x3ccddb97	0.025129123
63	0x3cd09067	0.025459481
64	0x3cbad902	0.022808556
65	0x3cd7f7ab	0.026363214
66	0xbd8ea32d	-0.06964717
67	0x3c1e8ea2	0.009677561
68	0x3d0a9b5e	0.033839576
69	0xbd87f03f	-0.0663762
70	0xbd7377aa	-0.059440292
71	0xbd691308	-0.056902915
72	0xbd705610	-0.058675826
73	0xbd690f88	-0.056899577
74	0xbd8530e6	-0.06503467
75	0x3d059711	0.03261477
76	0x3ca45efc	0.020064823
77	0x3d537252	0.051622696
78	0x3d377304	0.04478742
79	0x3d0b2833	0.033973884
80	0x3cf20884	0.029545076
81	0xbd6f9830	-0.058494747
82	0x3cc39339	0.023873912
83	0xbd430071	-0.047607843
84	0x3cd3c173	0.02584908
85	0x3b0f588f	0.0021872853
86	0x3c7b1772	0.015325414
87	0x3cc750c3	0.024330502
88	0xbd75465a	-0.059881546
89	0x3c208db2	0.009799408
90	0x3ccab60b	0.024745008
91	0x3cbaf5b7	0.022822244
92	0xbd8907b7	-0.066909246
93	0x3cd25b5a	0.025678325
94	0x3c9a9731	0.018870922
95	0xbd85d2b9	-0.06534333
96	0x3d01669a	0.03159199
97	0xbd4db888	-0.05022481
98	0x3d129a46	0.035791658
99	0xbd844e7e	-0.06460284
100	0xbbc519fb	-0.00601506
101	0xbd73ed97	-0.059552755
102	0xbd863d04	-0.065546066
103	0x3d9308f5	0.07179443
104	0x3cb646f0	0.022250623
105	0xbd87b49a	-0.06626244
106	0x3baecdfc	0.005334614
107	0x3c80af67	0.015708638
108	0x3cd10b99	0.025518226
109	0xbd702b89	-0.05863527
110	0x3d05c310	0.03265673
111	0x3d0db06c	0.034592077
112	0x3ce4fd8b	0.02795293
113	0xbb7df33e	-0.003874972
114	0x3cff442b	0.031160435
115	0x3cd9fd57	0.02661006
116	0xbd8489b2	-0.06471576
117	0xbd64ff5b	-0.05590759
118	0xbd6bf1d6	-0.05760368
119	0xbd9fe1f0	-0.07806766
120	0x3d00008e	0.03125053
121	0x3cf7f548	0.030268326
122	0xbd831d9b	-0.06402131
123	0x3c4a1d5f	0.012336104
124	0x3cd00f25	0.025397846
125	0x3cc8d3c7	0.024515046
126	0xbd8826ae	-0.066480026
127	0xbd842253	-0.06451859
128	0x3cc38ee3	0.023871845
129	0x3d4674f6	0.048451386
130	0x3c581648	0.013188906
131	0x3cbc42e8	0.022981122
132	0x3ca836ca	0.020533938
133	0x3c824b09	0.01590492
134	0xbd4d6e0c	-0.050153777
135	0xbd83ac55	-0.06429354
136	0xbd8b3071	-0.06796349
137	0x3ce6e2ca	0.028184313
138	0x3ca5407e	0.020172354
139	0x3d02ca7f	0.031931397
140	0x3d28e75c	0.041236266
141	0x3d1c6587	0.03818276
142	0xbd461fd6	-0.048370205
143	0x3c148655	0.00906523
144	0x3cb66dee	0.022269215
145	0x3ce32173	0.02772591
146	0xbd96e541	-0.073679455
147	0xbd72c17e	-0.05926656
148	0x3d0cc52a	0.034367718
149	0x3d9094b3	0.07059612
150	0xbd8518f6	-0.064989015
151	0xbd7a91a4	-0.06117405
152	0x3d16ac95	0.03678568
153	0xbd660c64	-0.05616416
154	0xb9ba8453	-0.00035575274
155	0xbd77af0d	-0.060469676
156	0xbd76781e	-0.060173146
157	0x3cc2489f	0.023716269
158	0x3d048205	0.03235056
159	0x3cfad3e3	0.030618614
160	0xbd84a5f4	-0.064769655
161	0xbd3d1751	-0.046164814
162	0x3d1cdced	0.03829663
163	0x3cb3311c	0.021874003
164	0x3cc82e49	0.024436133
165	0x3ce7da9d	0.028302485
166	0xbca58659	-0.020205664
167	0x3d0e7880	0.034782887
168	0x3cfa4a9a	0.03055315
169	0x3d1914c6	0.037373327
170	0xbd90f70c	-0.070783705
171	0x3d5584bb	0.052128535
172	0xbd889b50	-0.066702485
173	0x3d7f8eb9	0.06239197
174	0x3d06704c	0.03282194
175	0xbd69ab87	-0.057048347
176	0xbd8b442a	-0.06800111
177	0x3d34fbd9	0.044185493
178	0xbd947c5a	-0.07250281
179	0x3d1b6ad8	0.03794369
180	0x3d0ce8b9	0.03440163
181	0x3d152cb1	0.036419574
182	0x3cf28370	0.02960369
183	0xbc1c34df	-0.00953409
184	0xbd755ad0	-0.05990106
185	0x3cf3c082	0.02975488
186	0x3cfa3b96	0.03054599
187	0x3c37d7d2	0.011220889
188	0x3ce9fe13	0.028563535
189	0xbd8c9f73	-0.0686635
190	0xbd5ccff1	-0.053909246
191	0x3cc0b8ef	0.023525683
192	0xbd1bedb5	-0.038068492
193	0x3d06829d	0.032839406
194	0x3be07e74	0.006851012
195	0x3d3cefb1	0.046127025
196	0x3cf57fa7	0.029968096
197	0x3b45f561	0.0030206072
198	0x3ca1e8c8	0.019764319
199	0x3cebc1a6	0.028778862
200	0xbcdd92fc	-0.027047627
201	0xbd8c906e	-0.06863485
202	0xbd8820fe	-0.06646918
203	0xbd8993fb	-0.06717678
204	0xbd769413	-0.06019981
205	0xbd8dc589	-0.069224425
206	0xbd811d0b	-0.06304368
207	0x3cb71d81	0.022352936
208	0x3ceb0f20	0.028693736
209	0xbd702483	-0.05862857
210	0xbd964b06	-0.07338528
211	0x3ce3d5b3	0.02781186
212	0x3cdab7d4	0.026698984
213	0xbc9a04fe	-0.018801209
214	0x3cf3840b	0.029726049
215	0xbd88f8e6	-0.066880986
216	0x3cfe8c00	0.031072617
217	0x3d513aa4	0.051081315
218	0x3c99b06d	0.018760884
219	0x3d18d633	0.03731365
220	0x3d1a0fef	0.03761285
221	0xbd8c74ae	-0.068581924
222	0xbcf9c024	-0.030487128
223	0xbd844bb1	-0.064597495
224	0x3cc4d081	0.024025204
225	0xbd8a7e4f	-0.06762373
226	0x3cc4ca04	0.02402211
227	0x3cd2a0de	0.025711473
228	0x3ce725d9	0.02821629
229	0xbd9eaaa2	-0.077473894
230	0xbd8a6274	-0.0675706
231	0xbd9a2cea	-0.07528098
232	0x3d0ca64b	0.034338277
233	0x3cebab26	0.028768133
234	0xbcc0003a	-0.023437608
235	0x3c5742b2	0.01313846
236	0x3cc99f2a	0.024612028
237	0xbd81aaa8	-0.06331378
238	0x3ce44bec	0.027868234
239	0x3cc86068	0.024460033
240	0x3ce7a1a2	0.028275315
241	0xbd7f683e	-0.062355272
242	0xbd956466	-0.0729454
243	0xbd8dd307	-0.06925016
244	0xbd7662d2	-0.060152836
245	0xbd8ee921	-0.069780596
246	0x3cca0335	0.024659732
247	0xbd4d88d9	-0.050179336
248	0x3cfa2019	0.030532883
249	0x3cf03755	0.02932326
250	0x3cec7b33	0.02886734
251	0xbd7979ef	-0.0609073
252	0x3ce612e2	0.028085176
253	0x3c44002e	0.0119629335
254	0xbd905e4b	-0.07049235
255	0x3cbeff3d	0.023315066

feature_extractor.0.1.running_var f4 [300]
0	0x3948b132	0.00019139497
1	0x391f0ee0	0.00015168963
2	0x396c9213	0.00022561131
3	0x39fc4f76	0.0004812439
4	0x3a9a63be	0.0011778993
5	0x38c0ebc3	9.1991875e-05
6	0x3aa7da12	0.0012806079
7	0x3afc51cf	0.0019250455
8	0x3aaff7d9	0.0013425305
9	0x39a2da21	0.00031061567
10	0x396f8ea2	0.00022845951
11	0x3aa6256f	0.0012675951
12	0x3ac1b918	0.0014779894
13	0x3ac20178	0.0014801463
14	0x3b171541	0.002305344
15	0x3990fc67	0.00027653875
16	0x39aa8e88	0.0003253112
17	0x3a575bba	0.00082152674
18	0x3ae3fd4e	0.0017394216
19	0x3974f85e	0.00023362177
20	0x3afbcb00	0.0019210279
21	0x3abb1abf	0.0014274939
22	0x3ad3ad12	0.0016149601
23	0x399f9be6	0.00030442997
24	0x3987ca4f	0.00025899938
25	0x3a95fad9	0.0011442556
26	0x3ac185f1	0.0014764649
27	0x388bf6ec	6.674029e-05
28	0x3aee1684	0.0018164669
29	0x3902f19f	0.00012487777
30	0x39fe6fae	0.00048529863
31	0x39915335	0.0002771855
32	0x37881b82	1.6225273e-05
33	0x3a52e3e6	0.0008044824
34	0x3a918510	0.0011102278
35	0x39b520fa	0.0003454758
36	0x3ac07265	0.001468253
37	0x3940b324	0.00018377282
38	0x398954df	0.0002619391
39	0x391e58ce	0.00015101137
40	0x3b06f010	0.0020589866
41	0x39202971	0.00015274227
42	0x395ed21d	0.00021249843
43	0x3a08dc8c	0.00052208523
44	0x3a76e52d	0.0009418305
45	0x3abbdb26	0.0014332279
46	0x39c7535e	0.0003801835
47	0x3ad5dcac	0.0016316376
48	0x3a9257f3	0.0011165127
49	0x390332c9	0.00012512052
50	0x3a90dbfa	0.0011051886
51	0x3aaee088	0.0013342062
52	0x38c73bc3	9.500191e-05
53	0x39269c19	0.00015889145
54	0x3998010c	0.0002899248
55	0x3a6fd9b3	0.0009149566
56	0x39ece802	0.00045186287
57	0x396cffbc	0.00022601982
58	0x39aaef73	0.0003260333
59	0x3a5db4a8	0.0008457401
60	0x3a68de3d	0.0008883214
61	0x3a249cf2	0.000627949
62	0x395c12bf	0.00020987818
63	0x39662237	0.00021947255
64	0x392fc87d	0.00016763988
65	0x397803c9	0.00023652533
66	0x3ad63ddb	0.0016345339
67	0x39172503	0.0001441427
68	0x39c477af	0.00037473204
69	0x3ac327b4	0.0014889152
70	0x3a97eebd	0.0011591535
71	0x3a8ac4a2	0.0010587166
72	0x3a9326c7	0.0011226767
73	0x3a89943d	0.0010496449
74	0x3abb5c5a	0.0014294491
75	0x39b63b33	0.00034757852
76	0x3906c10d	0.00012851153
77	0x3a680511	0.00088508526
78	0x3a2b66fa	0.0006538477
79	0x39c6d0f1	0.00037921176
80	0x399675cc	0.00028697995
81	0x3a91bba9	0.0011118549
82	0x394bc8f5	0.00019434451
83	0x3a4755b0	0.0007604016
84	0x3983e1ca	0.00025154493
85	0x38d34e5e	0.00010075861
86	0x391abc4f	0.00014756735
87	0x3949215e	0.00019181284
88	0x3a9f6cfa	0.0012163215
89	0x39180c46	0.00014500422
90	0x3952a1b6	0.00020087403
91	0x393a821d	0.00017786813
92	0x3ac2eaee	0.001487104
93	0x3960d315	0.00021440939
94	0x38f39b75	0.00011616099
95	0x3abd05b4	0.0014421255
96	0x39b30229	0.0003414315
97	0x3a55bad4	0.0008153145
98	0x39de1d79	0.00042365098
99	0x3ab434a1	0.0013748595
100	0x38f38aa4	0.00011612967
101	0x3a961083	0.0011449013
102	0x3ab67042	0.0013918953
103	0x3addd729	0.0016925085
104	0x392a0bbc	0.00016216835
105	0x3abcb119	0.0014396041
106	0x38a1057d	7.6781005e-05
107	0x3918d511	0.00014575223
108	0x395d38b6	0.00021097329
109	0x3a933edf	0.0011233947
110	0x39bdeac7	0.00036223812
111	0x39cf025c	0.00039483875
112	0x398799a2	0.00025863672
113	0x3935ee8d	0.00017350372
114	0x39abcedc	0.00032769784
115	0x39749037	0.00023323378
116	0x3ab3bad2	0.0013712293
117	0x3a892e22	0.0010466019
118	0x3a8d771f	0.0010792947
119	0x3b01bea4	0.0019797469
120	0x39ac77ea	0.0003289574
121	0x39a0cc97	0.0003067001
122	0x3ab421a8	0.001374294
123	0x388f49b7	6.832502e-05
124	0x395fbccd	0.00021337271
125	0x39b2e0f7	0.00034118418
126	0x3abd4ccb	0.0014442442
127	0x3ab2a58c	0.0013629659
128	0x3944743d	0.00018735319
129	0x3a4d1072	0.000782258
130	0x38b87fbd	8.797597e-05
131	0x393a9f8c	0.00017797778
132	0x3913cb65	0.00014094783
133	0x38ae9e41	8.326444e-05
134	0x3a5b5920	0.00083674677
135	0x3ab253ca	0.0013605293
136	0x3ac67f0c	0.0015144064
137	0x3989e016	0.00026297633
138	0x390d219f	0.00013459333
139	0x39afe04e	0.0003354572
140	0x3a12f871	0.00056064787
141	0x3a0056e3	0.00048957596
142	0x3a469569	0.00075753644
143	0x38f39e0f	0.00011616584
144	0x3929d3ed	0.00016196044
145	0x3987788b	0.00025839018
146	0x3af0b1bc	0.0018363516
147	0x3a97e8f2	0.0011589809
148	0x39cc29b8	0.00038940995
149	0x3ad4328b	0.0016189379
150	0x3ab8a48e	0.0014087127
151	0x3aa33d59	0.0012454196
152	0x39ee8ccf	0.00045499808
153	0x3a884fa2	0.0010399709
154	0x3955b563	0.00020380835
155	0x3a9c826e	0.0011940727
156	0x3a9e2905	0.0012066668
157	0x394a13ec	0.00019271643
158	0x39b2d6ff	0.0003411099
159	0x39a2dd8a	0.00031064107
160	0x3ab8f058	0.0014109714
161	0x3a3739a3	0.00069894845
162	0x3a0062a7	0.0004897513
163	0x392431a5	0.00015658753
164	0x394c564a	0.00019487101
165	0x398d64a4	0.000269686
166	0x3955ffa1	0.00020408492
167	0x39d42e99	0.0004047051
168	0x39a14646	0.0003076067
169	0x39f8cc0a	0.00047454267
170	0x3ada4b28	0.0016654478
171	0x3a7a3c2c	0.00095457095
172	0x3ac34140	0.0014896765
173	0x3aaf25d4	0.0013362714
174	0x39c01c2a	0.00036642078
175	0x3a907129	0.0011020052
176	0x3ac9ec27	0.0015405462
177	0x3a2930f1	0.0006454131
178	0x3adee6fd	0.0017006096
179	0x39fe9801	0.00048559907
180	0x39ceeff9	0.00039470175
181	0x39eb3f1f	0.00044869722
182	0x3998c16d	0.00029135813
183	0x388de503	6.766061e-05
184	0x3a97b312	0.0011573753
185	0x3999506d	0.00029242356
186	0x39a2d56f	0.00031058068
187	0x38312aa2	4.2239793e-05
188	0x398e070d	0.00027089604
189	0x3acb20e3	0.0015497472
190	0x3a775901	0.0009435565
191	0x39b292fe	0.00034060323
192	0x3a111f45	0.00055359706
193	0x39b73ef8	0.00034951395
194	0x38c98349	9.608881e-05
195	0x3a37c592	0.0007010336
196	0x399ccdb2	0.00029907894
197	0x391002c9	0.00013733948
198	0x39086c80	0.0001301039
199	0x39bf689b	0.00036508296
200	0x398b8a02	0.0002661497
201	0x3acecfad	0.0015778445
202	0x3abcba06	0.0014398701
203	0x3ac01c1e	0.0014656817
204	0x3a95df99	0.0011434435
205	0x3acdf87e	0.0015714315
206	0x3aa701cb	0.0012741623
207	0x3929606c	0.00016153016
208	0x398c432c	0.00026752928
209	0x3a936e4f	0.0011248084
210	0x3ae30119	0.0017319053
211	0x39891385	0.0002614522
212	0x3977fc76	0.00023649805
213	0x39968961	0.00028712585
214	0x3997893b	0.0002890321
215	0x3ac1ff0c	0.0014800741
216	0x39a6e064	0.0003182917
217	0x3a71ae08	0.0009219353
218	0x395fddc2	0.00021349548
219	0x39f36a08	0.0004642757
220	0x39f7d767	0.00047271998
221	0x3acb4613	0.0015508555
222	0x39adbec8	0.00033139274
223	0x3ab49bb4	0.0013779313
224	0x394a0582	0.00019266273
225	0x3ac4b6fc	0.0015008147
226	0x3949249e	0.00019182495
227	0x39623109	0.00021571307
228	0x398b65fd	0.00026588133
229	0x3b032f55	0.0020017226
230	0x3ac3e100	0.0014944375
231	0x3af3a313	0.0018588029
232	0x39d1051d	0.00039867396
233	0x39994713	0.00029235389
234	0x395b1423	0.00020892969
235	0x39893667	0.0002617121
236	0x3957ce5a	0.0002058087
237	0x3ab1eb35	0.0013574125
238	0x3989338c	0.00026169082
239	0x394ebced	0.00019716071
240	0x39aeb2e7	0.0003332116
241	0x3aa96e9e	0.0012926643
242	0x3ae4b04f	0.0017447564
243	0x3ad0f8a6	0.0015943244
244	0x3a9cf227	0.0011974022
245	0x3acfe15a	0.0015860007
246	0x3954acb8	0.00020282238
247	0x3a544645	0.0008097629
248	0x399ee039	0.00030303167
249	0x3993dac9	0.00028201033
250	0x3992104d	0.00027859435
251	0x3aa20590	0.0012361277
252	0x399ad199	0.0002952933
253	0x3914a163	0.00014174501
254	0x3ada453b	0.0016652712
255	0x393cd4c7	0.00018008343

feature_extractor.1.0.weight f4 [1, 300, 5, 5]
0	0x3ae00b5f	0.0017093233
1	0xb9887e3e	-0.00026034
2	0x3b81baa4	0.003959017
3	0xba6292ce	-0.00086430914
4	0x3ab793af	0.0014005805
5	0x3910dd94	0.00013815454
6	0xbbb6d9d9	-0.0055801687
7	0xbb3b25d9	-0.0028556495
8	0xbbe0f221	-0.0068648015
9	0xba126caf	-0.0005585653
10	0x3b7476db	0.0037302289
11	0xbb5af065	-0.0033407446
12	0x3a0df691	0.00054154644
13	0xbb9aae8e	-0.0047205156
14	0x3b515762	0.0031942953
15	0xb9d9096d	-0.00041396488
16	0xbbf0636c	-0.0073360708
17	0xbba1f8c8	-0.004942987
18	0xbc0ce1e6	-0.00859878
19	0xbaaa0516	-0.0012971486
20	0x3b2d0d76	0.0026405728
21	0xb9c12a0a	-0.0003684315
22	0x3b6ef096	0.0036459318
23	0xba7dfe30	-0.0009689061
24	0x3b1ec2e1	0.0024225044
25	0x3b2e3f1a	0.0026587904
26	0x3c069074	0.008213151
27	0x3b5146f3	0.0031933158
28	0xbb01104f	-0.0019693559
29	0xbab45dc2	-0.0013760852
30	0x3be655bf	0.0070292647
31	0x3c2455ec	0.010030251
32	0x3befde4a	0.0073202
33	0x3b1be122	0.0023785313
34	0x3b2c0807	0.0026249902
35	0xba30bcf5	-0.0006742024
36	0x3ae75e76	0.0017652053
37	0xbb1d5023	-0.0024004064
38	0xbbb2bdc2	-0.00545475
39	0xba7fa8e4	-0.00097526447
40	0xbbf09e4f	-0.0073430906
41	0xbb997fd0	-0.004684426
42	0xbbe1aab2	-0.0068868035
43	0xbbe1ca09	-0.0068905395
44	0x3ab391f4	0.0013700114
45	0xb9e30773	-0.00043302364
46	0x391fa3bd	0.00015224419
47	0xbae8957c	-0.0017744745
48	0x3b07aab5	0.0020701115
49	0x3c91690f	0.017750291
50	0xb8caa5e9	-9.663014e-05
51	0xbabe184d	-0.0014503092
52	0x3abbc252	0.001432488
53	0xbac757f7	-0.0015208711
54	0xb9130043	-0.0001401911
55	0xbaa5fbf1	-0.0012663585
56	0xbba8432e	-0.0051349616
57	0xbb56a61b	-0.0032752815
58	0xbbba760a	-0.005690341
59	0xbacea675	-0.0015766161
60	0x3a91cbd0	0.0011123363
61	0xbb6dd4e6	-0.0036290227
62	0xba939267	-0.0011258841
63	0xbb88c9fe	-0.00417447
64	0x3a754f09	0.00093577855
65	0xbaa1f21d	-0.001235548
66	0xbbc1f3c5	-0.005918952
67	0xbb88069b	-0.004151178
68	0xbbccc369	-0.0062488806
69	0xbad1957a	-0.0015989982
70	0x3a81f465	0.0009914754
71	0xba9357aa	-0.0011241336
72	0x3ad2ff31	0.0016097781
73	0xba91baf6	-0.0011118341
74	0x3a855f86	0.0010175563
75	0x38bd2de2	9.0207686e-05
76	0xbae26875	-0.0017273562
77	0x3b1982a6	0.002342382
78	0xbb160f53	-0.0022897318
79	0xb8b95877	-8.837965e-05
80	0xbafabfd9	-0.0019130661
81	0xbbfd4d2c	-0.007730147
82	0xbbaa627a	-0.0051997276
83	0xbc122bf7	-0.008921615
84	0xbb2d3db8	-0.0026434492
85	0x3ab1aee1	0.0013556146
86	0xbbb79915	-0.0056029656
87	0xbaf10520	-0.0018388368
88	0xbbdfe4eb	-0.006832709
89	0x3a7e039a	0.0009689868
90	0xbb1ba67f	-0.0023750362
91	0xbc17523c	-0.009235915
92	0xbbe33ab0	-0.0069344863
93	0xbc258d7c	-0.010104533
94	0xbb448ef3	-0.002999243
95	0x3a89bcbd	0.0010508519
96	0xbafafc7c	-0.0019148733
97	0x3afa13c1	0.0019079373
98	0xbb172089	-0.0023060164
99	0x3a69b427	0.00089150894
100	0x3b30c0d7	0.002697041
101	0x3af0a10e	0.0018358545
102	0xbb525711	-0.0032095353
103	0x3b128d60	0.0022362098
104	0x3b19afa0	0.0023450628
105	0x3ad173cc	0.0015979945
106	0xbb58ab7a	-0.0033061192
107	0xbc2b1021	-0.010440857
108	0xbb7cf854	-0.0038600164
109	0x37855592	1.5894682e-05
110	0xbb742125	-0.00372512
111	0xbc2037a7	-0.009778894
112	0xbc98ffee	-0.018676724
113	0xbc26071f	-0.010133534
114	0xbbcad24b	-0.0061896197
115	0x3ab7749b	0.0013996543
116	0xbb5cf210	-0.0033713616
117	0xbc1dc415	-0.009629269
118	0xbb851060	-0.00406079
119	0xba3d4743	-0.00072203967
120	0x3b0caf08	0.0021466631
121	0xba409ea6	-0.0007347859
122	0xbbe938ee	-0.0071173823
123	0xba34bc39	-0.00068945024
124	0x3ae17206	0.0017200119
125	0xbb5a77c8	-0.0033335555
126	0xbb394fdb	-0.0028276357
127	0x3b8627c7	0.0040940973
128	0x3be198bb	0.006884662
129	0x3bb7284d	0.005589521
130	0x3b121dc0	0.0022295564
131	0xbaa0b7e6	-0.0012261837
132	0x3be12b45	0.006871613
133	0x3c3e4cd5	0.011614998
134	0x3bf80d22	0.007569925
135	0xbb137a26	-0.0022503226
136	0xbbcb7370	-0.0062088296
137	0xbb39b046	-0.0028333827
138	0x3aeaa688	0.0017902413
139	0xb882a4cd	-6.2295796e-05
140	0xb8ce8ed4	-9.849449e-05
141	0xbb948324	-0.0045322347
142	0xbb49f848	-0.0030818153
143	0xbb3d2ecf	-0.0028867011
144	0xbb909e52	-0.0044134045
145	0x3c5b298d	0.013376606
146	0x3aee8afd	0.0018199381
147	0x397f61ce	0.0002435513
148	0x3997e1c3	0.0002896917
149	0xba96a4cb	-0.0011493204
150	0x3af84274	0.0018940703
151	0x3ac0ad08	0.0014700005
152	0xbb799961	-0.0038085806
153	0x3ae45849	0.001742133
154	0x3b23dcdb	0.0025003466
155	0x3a959fab	0.0011415383
156	0xbb587477	-0.0033028403
157	0xbc2efaf6	-0.010679951
158	0xbb82b894	-0.0039892886
159	0x3a11d91c	0.0005563663
160	0xbb865856	-0.004099886
161	0xbc1cd169	-0.009571412
162	0xbc9c180e	-0.019054439
163	0xbc2c6147	-0.01052124
164	0xbbbe5933	-0.005808973
165	0x3ab2c35f	0.0013638547
166	0xbb4c0610	-0.0031131543
167	0xbc27462c	-0.010209601
168	0xbb8d01d7	-0.004303198
169	0xb960179c	-0.000213711
170	0x3b5026db	0.003176144
171	0x3a1d0ada	0.0005990692
172	0xbbcc1024	-0.00622751
173	0x39c8dfec	0.00038313807
174	0x3b58128c	0.003297004
175	0x3a805df1	0.0009793622
176	0x3abe4db4	0.0014519007
177	0xbb943b4c	-0.0045236703
178	0x3a263fef	0.00063419243
179	0x3a973e5a	0.0011538968
180	0xb7e937f3	-2.7801818e-05
181	0xbb82e9b1	-0.0039951433
182	0xbc44dc0b	-0.012015353
183	0xbbb73fee	-0.005592338
184	0xba7cf87e	-0.00096500653
185	0xbbaf580f	-0.0053510736
186	0xbc2c0d5c	-0.010501232
187	0xbca5aba4	-0.020223446
188	0xbc48503c	-0.012226161
189	0xbbf350c6	-0.0074254004
190	0x36ef57ab	7.132961e-06
191	0xbb6c7a95	-0.0036083807
192	0xbc3c5c35	-0.011496593
193	0xbbc2a50e	-0.005940086
194	0xbad13fd8	-0.0015964461
195	0x3a2f943c	0.0006697809
196	0xba706552	-0.00091703713
197	0xbc0bcc98	-0.008532666
198	0xbb1ca1b6	-0.0023900098
199	0x3a284802	0.00064194214
200	0x3b17ce15	0.0023163606
201	0x3ac5e9df	0.0015099606
202	0xbb6cdaaa	-0.0036141076
203	0x3a8006d0	0.0009767655
204	0x3a81f585	0.000991509
205	0x3ad6870c	0.0016367151
206	0xbb6aeabc	-0.003584548
207	0xbc2f7469	-0.010708907
208	0xbba1e5de	-0.0049407324
209	0xba9835d6	-0.0011612724
210	0xbb6c8536	-0.0036090142
211	0xbc24fff8	-0.010070793
212	0xbc993582	-0.018702272
213	0xbc33a5aa	-0.01096479
214	0xbbe24412	-0.0069050873
215	0x3a8b4c24	0.001062755
216	0xbb873a8b	-0.004126852
217	0xbc2eefce	-0.010677291
218	0xbbac9b2c	-0.0052675214
219	0xbacdc610	-0.0015699286
220	0x3b02dabe	0.0019966806
221	0xba8863c4	-0.0010405709
222	0xbbfebd12	-0.007774004
223	0xbae24c7b	-0.0017265225
224	0x3a48cb5a	0.0007659696
225	0x3aa5985a	0.0012633905
226	0xb9e4d482	-0.0004364588
227	0x3b6da0da	0.0036259205
228	0xbaac7635	-0.0013157787
229	0x3a2da011	0.0006623278
230	0xba51ccd3	-0.00080032385
231	0xbbd035e3	-0.00635408
232	0xbb7ed256	-0.0038882694
233	0xbc040dc4	-0.008059923
234	0xbb03f071	-0.0020132328
235	0x3b21c9b7	0.0024686882
236	0xbb90a0d9	-0.004413706
237	0xba056e86	-0.00050900166
238	0xbbc9771e	-0.006148233
239	0x3ab3b3c1	0.0013710187
240	0xbac90cc6	-0.001533889
241	0xbc08aff5	-0.008342733
242	0xbbc56a70	-0.006024651
243	0xbc1f7b41	-0.009733976
244	0xbb33b865	-0.002742314
245	0x3aca7630	0.00154466
246	0xbaab24b6	-0.0013057205
247	0x3b2375fc	0.002494215
248	0xbb07230a	-0.002062025
249	0x3aa1eb64	0.0012353477
250	0x3b40cbe0	0.0029418394
251	0x3a2aefc6	0.00065207144
252	0x3bab0cee	0.005220047
253	0xb9203a09	-0.00015280409
254	0x3b0bf5cc	0.0021356223
255	0x3a3b9fdc	0.0007157305
